model.pth (torch, 528271 bytes, 8 tensors)

conv1.weight f4 [64, 1, 5, 5]
00000000: 0bf8 1e3e 6590 fbbd 33c0 aabd 54ef 203e
00000010: 7287 84be dc8f 493e 5a97 083c e5ce e93d
00000020: 34c7 f33c 8a92 1bbd 866b 0e3d 199a e7bb
00000030: 938c 623d a622 d5bd febb 91bc 86e0 743d
00000040: 5dce 333d c320 07bc 37ab 003e 7cde 883d
00000050: 8c62 88bd ce5f 5dbe 282d 333c 5cbe 6cbd
00000060: 2396 09bd f4cb 22bd f29b e93d a7e1 083e
00000070: 3a3d 89be 37c6 2e3e d04a 083d 337c 6a3e
00000080: c562 f23d 9111 81be d600 4ebe 6ae2 d8bd
00000090: 73a5 7b3e da01 08bd c8d5 063d e9bf a5bd
000000a0: 4b47 843e 823f 2bbe 4e0d 263e 02cf 03bd
000000b0: f715 04be 0bca b23d 92b8 c9bd b609 503d
000000c0: 9c93 98bd deb2 02bc 30cd aebe 12cd 41be
000000d0: 07ca 303e 2d75 0ebe 02d0 743e 3b34 5c3e
000000e0: 58c6 18bd d972 e6bd 8118 143e eda6 ad3d
000000f0: 7776 0dbe 05df 263e f18a c83d 5e1a 2e3e
00000100: f872 cdbd 29ce ebbb f4c5 8f3b 2491 573d
00000110: cc97 07be 2656 0fbe dd4f f93d 24c8 84bd
00000120: 4ce5 0c3e 9c95 053d 3eb9 803d 46e8 7f3c
00000130: d158 dd3d 3077 733d 3773 43be 274b 9a3d
00000140: 917b 0bbe 45c0 1ebe 1714 28bd 3452 5dbd
00000150: e7c8 233e a01e 64be 970e 8ebe 3390 123e
00000160: ef42 45bd 8cf2 4b3d 6c00 a53d a2f2 0cbe
00000170: fb3b 5d3d 8427 843c ad78 0ebe 7b88 b0bd
00000180: cd8a 803d 192a 2b3d 2b48 aabd f63e 24bd
00000190: ebb5 3d3e c4f8 f0bd 9ed5 953d ef05 a13d
000001a0: ea44 42be 39d1 64be 4531 893e 9a19 02bd
000001b0: 56c3 d73d 676b 6a3c 1253 293d ea7e 0b3e
000001c0: b01a 3e3e 10f6 e0bd cc70 85bc d9a2 a53d
000001d0: 2d69 2b3e 304c 883d 5805 58be 3613 7dbe
000001e0: 7d87 82be d137 193d ee1b 613e 815c 48be
000001f0: f21a 783d a509 0ebe fbac 45be fe7f 353c
00000200: 7662 fa3d 8086 7b3e a992 0ebe 99fa 6b3d
00000210: ff9a 723e 92f7 283e 6932 553e 5f51 533e
00000220: 8b29 013e bd9b 6f3c 119f 3cbe a3b4 8fbe
00000230: abff e4bd a855 02bc 3b68 0ebe 902d 843d
00000240: fb32 103d 48b0 0dbe 6f54 9c3d 225a 9e3d
00000250: 1c05 343e 9ca4 e83d 91d2 8cbd 599a db3d
00000260: 8101 72bd d083 99bd 3855 70be 1c24 2bbe
00000270: f0ff 37be f2b7 e1bd 831c f33d 883e 5dbd
00000280: bae2 6fbe 256b 55bd 4d99 e73d a086 563d
00000290: fd9d 47be ed86 fb3c 4efc 2bbd 1246 f4bd
000002a0: af92 43be 3d84 00be 7235 56bd 6d74 633d
000002b0: 6bcf 8f3d 3fb3 c43d 131f 9c3e 8544 6c3e
000002c0: 10d7 fc3d 082e bbbc adf2 00be d5da 363e
000002d0: 0281 80bc 41e3 c9bd a175 49be 29d4 91bd
000002e0: 85ba 24be 94bf e93d a6fc 61be b6b8 97be
000002f0: aa1b a4bd 48ff 20be 0bce 8d3d d55a 18be
00000300: 1c55 2ebe 130e b23d c258 eb3d 365a 24be
00000310: 719a d23d addd 2a3e a37d 6f3e 9ff9 1bbe
00000320: b3a1 b73d 204f 1ebe f132 893e 8a18 c0bd
00000330: 2a2b 303e 454c 9c3d 3499 273d 3ec8 b23d
00000340: a474 8f3d 0634 f03d 4006 9cbd b52b 883d
00000350: 5147 25be 0202 b23d 4271 063e 3521 a83d
00000360: d0c6 1e3e 5e3f 01be 1cdc b4bd 8ce0 303e
00000370: 8b70 40be 4bf3 d83e 2bba 9ebe 62ec 82be
00000380: e86a 613e 2ad5 ecbd 884c 12bd 8159 493e
00000390: 212e 553e 4fdf 803e 3cf7 9abc 5d2c 38be
000003a0: f239 8d3e c070 cfbc 5575 3ebd 474d a63d
000003b0: afc2 1ebe 6047 243e b84f ba3d bb3e 23be
000003c0: 7767 55be cbeb 12bd fb70 043e 7087 c9bc
000003d0: 09f9 00be aecb 383b 7514 53be a46d 1cbe
000003e0: 9ce9 15be a6c8 483e 79e6 1b3e c2dc 99bd
000003f0: bb18 55bb ff1f 703d ccb6 6a3c 35cd afbd
0.15524308 -0.122834004 -0.0833744 0.15716296 -0.25884587 0.19683784 0.008336866 0.11416415
0.029758073 -0.037981547 0.03477051 -0.0070679304 0.055309843 -0.10406999 -0.017789837 0.059784435
0.043897975 -0.008247557 0.12565313 0.066830605 -0.06659421 -0.21618578 0.010936059 -0.05779873
-0.033590447 -0.039745286 0.11406697 0.1336733 -0.26804525 0.170678 0.03327447 0.2289894
0.11835245 -0.25208715 -0.20117506 -0.1059006 0.24574833 -0.03320489 0.03291872 -0.080932446
0.25835642 -0.16723445 0.16216013 -0.03217984 -0.12899004 0.08729943 -0.09849657 0.05079051
-0.07450029 -0.007977216 -0.3414092 -0.18925884 0.17264567 -0.13911887 0.23907474 0.215043
-0.03729853 -0.11252374 0.14462472 0.08479104 -0.13814722 0.16296013 0.09792126 0.17002246
-0.10031694 -0.007196207 0.0043876115 0.05262865 -0.132415 -0.13997707 0.12173436 -0.06483486
0.13759345 0.03261338 0.06285332 0.015619343 0.10807956 0.059439838 -0.1908692 0.075338654
-0.13621356 -0.15503033 -0.041034784 -0.054033473 0.15994607 -0.22277308 -0.27745506 0.1431282
-0.048159536 0.049791858 0.08056721 -0.13764432 0.05401228 0.016132124 -0.13913222 -0.086197816
0.06276474 0.041788194 -0.08314546 -0.040099107 0.18526427 -0.11766198 0.07316135 0.0786246
-0.18971601 -0.22345437 0.26795402 -0.031762697 0.10535304 0.014307833 0.041338988 0.13622633
0.18564868 -0.10984433 -0.016289137 0.08087701 0.1673934 0.066551566 -0.21095788 -0.2471436
-0.25493994 0.037406746 0.2198331 -0.19566537 0.060572572 -0.13870867 -0.19304268 0.011077879
0.12225811 0.24563026 -0.13923134 0.057612035 0.23691939 0.1650069 0.20820011 0.2063651
0.12613504 0.014624533 -0.18420054 -0.28067502 -0.11181577 -0.007954992 -0.13906948 0.06454003
0.03520487 -0.13836777 0.07633292 0.07732035 0.17580074 0.11359522 -0.068761 0.10722799
-0.059083465 -0.07495844 -0.23470008 -0.16712993 -0.17968726 -0.11021413 0.118706726 -0.054014713
-0.23426333 -0.052104134 0.11308537 0.052374482 -0.19493861 0.030703986 -0.041988663 -0.11927427
-0.19098924 -0.12550445 -0.052297063 0.055530954 0.07021984 0.09604501 0.30492458 0.23073013
0.123457074 -0.022849098 -0.12592573 0.17856915 -0.015686516 -0.09857798 -0.19673778 -0.071205445
-0.16086777 0.11413494 -0.22069034 -0.2963311 -0.08013089 -0.15722382 0.06924065 -0.148784
-0.17024654 0.08694091 0.114915386 -0.16050038 0.102833636 0.16686125 0.2338777 -0.15231942
0.089663886 -0.15459871 0.26796678 -0.093796805 0.17203966 0.07631735 0.04091759 0.087295994
0.07004669 0.11728673 -0.076183796 0.066489615 -0.16140486 0.08691789 0.13129142 0.08209459
0.15505528 -0.12621829 -0.08831045 0.17273158 -0.18792932 0.42373118 -0.3100141 -0.2557097
0.22013438 -0.11564095 -0.035717517 0.1966305 0.20818378 0.2517037 -0.018916719 -0.17985673
0.2758327 -0.025322318 -0.046498615 0.08120208 -0.15503953 0.16042852 0.090972364 -0.15941899
-0.2084025 -0.0358694 0.12933724 -0.024600714 -0.12595 0.0028197574 -0.20613272 -0.152762
-0.14639896 0.19607791 0.15224637 -0.07512809 -0.0032515961 0.058624264 0.014325809 -0.08584062

conv1.bias f4 [64]
00000000: 9568 55bd c150 9ebd 6b0b 1bbe 2f89 813e
00000010: e505 513c 7789 61be 8ff0 7f3e 7831 683e
00000020: fd6e 41be 7c3f 82ba 48ed e13d 6cbb c8bd
00000030: 2d61 653b 7fbf 01be 16e4 4f3e 6bda 12be
00000040: 1275 fa3d 4b86 453e f4a6 11be 5dc6 5cbe
00000050: 2359 fa3d 59ef 94bc e103 223e 9e17 c13d
00000060: ca9b 8dbe d6d7 01be adb9 623e 9925 d03d
00000070: 3570 2d3b 8d2d 673d e081 c23d 4551 10be
00000080: 7300 59be 36af 413d 1d2c 43be d8e1 6bba
00000090: bd8a 2cbd 73b9 063e 6242 40be 6055 793e
000000a0: 4e07 30bd 9349 dd3d 6af2 9a3e 4bb4 80bd
000000b0: b4a4 7fbe 0b78 f6bc 1c9a 00be 3c07 41be
000000c0: 3955 b53d 6cf1 b13d c083 7abe cdd2 1f3d
000000d0: 92f9 683e 41e9 7fbd 88d5 363d 760a 0dba
000000e0: 1cbf 433e b2f8 5fbe e250 19be b0b8 8aba
000000f0: 1b55 3ebe 75b4 a13b c750 9b3e 63d6 86be
-0.05210169 -0.07730246 -0.15141074 0.25299975 0.012757753 -0.22025095 0.2499411 0.22675121
-0.18889995 -0.0009937133 0.11031586 -0.09801373 0.0035000548 -0.12670706 0.20301852 -0.14341132
0.12229361 0.1928951 -0.14223844 -0.21560045 0.12224033 -0.018180536 0.15821792 0.09428333
-0.2765792 -0.12679991 0.22141142 0.10163421 0.0026464586 0.056439925 0.09497428 -0.14093502
-0.21191578 0.047286235 -0.19059797 -0.0008998192 -0.0421245 0.13156681 -0.18775323 0.24348974
-0.042975716 0.10805049 0.30263072 -0.06284388 -0.24965173 -0.030086538 -0.12558788 -0.18850416
0.088541456 0.08688626 -0.24464321 0.039019395 0.22751454 -0.062478308 0.044637233 -0.0005380282
0.19115871 -0.21872213 -0.1497226 -0.0010583606 -0.18587153 0.004934842 0.30335066 -0.2633544

conv2.weight f4 [32, 64, 5, 5]
00000000: b452 93bb b227 45bb 491b 92bc 4405 54bb
00000010: bdaf 333c 09f7 af3c c0e1 9fbc 2188 ab39
00000020: a92e b9bc 8097 cdb7 e201 dfbb 8749 b6bb
00000030: c72f 743c 9539 cd3c 3737 6ebc 6f85 f3bb
00000040: 7f53 53bc 8270 d43a 5137 df3b 93af f23c
00000050: 92ed aabc 4fb6 c53c dfe1 e839 5839 c9bc
00000060: 0bd4 113d 554f 8fbc 0cf6 b2bc 49ed afba
00000070: 5475 f4bb e737 c1bc 54f7 89bc e883 17bc
00000080: 55b1 17ba 37db a1bc 06dc 3bbc a0ed cb3b
00000090: 19a8 96bc 3d2e dd39 2955 973c b159 63bb
000000a0: 3a6b c4bc 02a7 663c bf46 053d 67c8 8c3c
000000b0: 5b26 4d3c 3814 713c 5679 cb3c f846 333c
000000c0: 0ce2 f23c f0f1 a43c 69cd a2bc a402 2ebc
000000d0: d2ed 963c 08df 203c a913 813c 0f8d 903c
000000e0: 0781 773c a09b bc3b 2bf5 013d 3bf6 d1bc
000000f0: ec1d 143c 8640 d4bb 648c e4bb 04d5 d8bb
00000100: a66d 7d3c aea5 83bc 7f45 e3ba 471b a33c
00000110: 8937 d4ba 762a fdbb aafc 5b3c 9183 25bc
00000120: a276 bb3c 30a4 253c 0cd2 483c da62 c3bc
00000130: a27d 1b3b 5eaf 9dbc 9b7d c6bc c6b1 2d3c
00000140: de1e 0cbc cf93 cb3a f971 3e3c c1a5 2b3d
00000150: 1d67 d53c f7ba 6a3c e914 8bbc ecdb 7abb
00000160: 57ce f03c 2346 833c a83c 923a 4d94 98bc
00000170: 2d33 51bc 82bb c63c 104d 48bc 33f9 af3c
00000180: f240 8b3c 13f4 b8b9 e27d 86bc 623a bf3c
00000190: b6a4 a7bc e684 e5bc e3d6 c2bc 676d 86ba
000001a0: c907 2e3c 8ebb 42bb 0a36 7f3c 11c2 b93b
000001b0: 6cdd e9ba 8246 ec3c 3899 debc be0d 6abc
000001c0: 0d6d 513c 0d5e 913c 736f 063c 9690 d5bb
000001d0: 257e 653c 467a b2bc f8eb 8bbc 30ae 9c3c
000001e0: f846 8c3c 772e 2bbc eb76 32bc 2ebf 943c
000001f0: 09ed f63b 9554 02bc eca3 94bc 3f15 873c
00000200: f681 37bc f0f0 f73c 0869 4dbc e6ac 653a
00000210: 7f74 21bb fd75 803b 845c 453c 4c35 063b
00000220: 56e2 043c 2c15 cd3a d406 6f3b dcff 8a3b
00000230: 5640 67bc 6ee9 9b3c 88e4 27bc 6765 3e3c
00000240: 5745 9eba bf7e 483c 964b 8dbc 363a e53c
00000250: 4d53 183d adb0 c3bc 424a da3c 5796 9ebc
00000260: 1f58 1ebc d55c 163c 1874 853c f567 b93c
00000270: ce48 18ba d4a6 d13c f399 c03b c0af 033d
00000280: 0473 fd3b bed1 a63b e817 27bc 1539 eb3c
00000290: 5044 083d 1156 1ebc 1792 973c e364 6fbb
000002a0: 3682 dc3b 86f7 043d 2d0d a9bc e7c5 8eba
000002b0: b227 873c 9945 403c b396 7fbb 9b14 bbbc
000002c0: 3d69 dbbb e142 18bd 1492 4dbc 7a57 17bd
000002d0: 09fc 203c 744d 1e3d 1657 1e3c a9aa 4d3c
000002e0: e744 72bb 978a 333c acf1 653c 9193 1ebb
000002f0: 4089 053c b91a ad3c 0073 50bc 1cd3 953c
00000300: ce6a 243d 61a0 e8bb 09c3 003d 6bf3 15b9
00000310: 989d 13bc d409 533c 98f2 0fbd ad89 c6bc
00000320: 35fa 01bc 8ff3 22bb eb90 f7ba 9dca 82bc
00000330: 4639 dd3c 0b01 e3bc 089b c4bc 32d8 bbbc
00000340: d28d 02bd 6fc4 72bb b8ff 45bc 0b37 39b9
00000350: 2181 513d 5756 c23c 539d 7c3c 0531 87bc
00000360: a640 23ba 35f6 c73c 2c6d cfbb 1db4 1dbc
00000370: 5a3f 34bb cfaf feba a91c 45bc 1bca 433b
00000380: e5ce eebc 5ee9 6ebc d3bc 193b e13d afbc
00000390: 3a1e 1d39 43c1 d23c 48eb be3b 5c77 ec3b
000003a0: 8216 863b cca9 043c 35ff 00bc 4358 953c
000003b0: 02c9 c038 fbe1 9c3c fca5 c53c b04e de3c
000003c0: 1754 acbc 5cd2 433c f91a 9cbc ac16 af3c
000003d0: 54ca bebb 61db b33b 3780 9cbc 7695 d63b
000003e0: 67b1 123d 069a aa3c 3fc9 0dbd da47 b73b
000003f0: ccf0 dfbc 84c7 ddbc d7c5 ab3c d04f 06bc
-0.004495943 -0.0030083475 -0.017835276 -0.0032351771 0.010967192 0.0214801 -0.019516826 0.00032717086
-0.022605257 -2.4508452e-05 -0.0068056444 -0.0055629644 0.014903969 0.025051871 -0.014539531 -0.007431678
-0.012898325 0.0016207846 0.006812014 0.029624736 -0.020865235 0.024134783 0.00044418775 -0.024563476
0.03560261 -0.017493883 -0.02184584 -0.0013422157 -0.0074602757 -0.023586227 -0.016841568 -0.0092477575
-0.00057866174 -0.01975785 -0.011466032 0.0062233955 -0.018390702 0.00042186855 0.018473225 -0.0034690911
-0.02397691 0.014077904 0.03253817 0.017185403 0.012521352 0.014714293 0.02483813 0.010942213
0.029648803 0.020134896 -0.019873338 -0.010620747 0.018423948 0.0098188 0.015756445 0.017645387
0.015106446 0.0057558566 0.03172795 -0.025630107 0.009040337 -0.0064774184 -0.0069747437 -0.0066171903
0.015468037 -0.016070213 -0.0017339437 0.019910468 -0.0016190867 -0.007726009 0.013426939 -0.010102169
0.022883717 0.010109946 0.01225711 -0.023850847 0.0023726006 -0.01924866 -0.024229815 0.0106014665
-0.008552281 0.0015531721 0.011623853 0.041906122 0.026050145 0.014326802 -0.016977744 -0.0038278056
0.029395266 0.016024655 0.0011156993 -0.018625403 -0.012768549 0.024259333 -0.012225404 0.021481132
0.016998742 -0.00035277064 -0.016417447 0.023343269 -0.020464282 -0.028017472 -0.023784107 -0.0010255993
0.010621973 -0.0029713842 0.015576849 0.0056688865 -0.0017842478 0.028842214 -0.02717267 -0.014285503
0.012782347 0.017745042 0.0082052825 -0.00651748 0.014007126 -0.02178682 -0.017080292 0.019126028
0.017123684 -0.01044809 -0.01089261 0.018157568 0.007535581 -0.007954736 -0.01814457 0.016489623
-0.011200419 0.030266255 -0.012537248 0.00087614206 -0.0024636087 0.0039203153 0.012045983 0.0020478545
0.008110603 0.0015646568 0.0036472576 0.0042419266 -0.01411446 0.019032206 -0.010247357 0.011620856
-0.0012075108 0.01223725 -0.017247956 0.027981859 0.037188817 -0.023887957 0.026646737 -0.019358797
-0.009664564 0.009177406 0.01629071 0.022632578 -0.00058091886 0.025592245 0.005877727 0.03215003
0.007734658 0.005090921 -0.010198571 0.028713742 0.033268273 -0.0096640745 0.018502278 -0.003652864
0.0067293895 0.03246262 -0.020636166 -0.001089272 0.01649842 0.011735343 -0.0038999736 -0.022836974
-0.006695895 -0.037173156 -0.012547035 -0.03694866 0.009825715 0.038648084 0.009664318 0.012552896
-0.0036967339 0.010958335 0.01403467 -0.0024196843 0.008150399 0.021130906 -0.012722731 0.018289141
0.04014092 -0.007099197 0.031436 -0.00014300428 -0.009009741 0.012880761 -0.035143465 -0.02423557
-0.007933189 -0.002486441 -0.0018887793 -0.015965754 0.02700485 -0.027710458 -0.023999706 -0.022930238
-0.03187353 -0.0037043353 -0.012084894 -0.0001766348 0.051148538 0.02372281 0.015418368 -0.016502867
-0.000622759 0.024409393 -0.006330153 -0.009625462 -0.002750358 -0.0019431057 -0.012030759 0.0029875103
-0.02915139 -0.014582006 0.0023458495 -0.02139181 0.00014983947 0.02572692 0.0058263876 0.007216377
0.0040920386 0.008097123 -0.007873346 0.018230563 9.192714e-05 0.019150725 0.024127 0.02713713
-0.02103619 0.011952009 -0.01905583 0.021373115 -0.0058224592 0.0054887985 -0.019104106 0.006548579
0.035813715 0.020825397 -0.03461575 0.005593282 -0.0273365 -0.027072676 0.02096836 -0.00819774

conv2.bias f4 [32]
00000000: 2cda 52bd e1d3 97bd 1395 a4bd 6a51 babd
00000010: 1317 40bd 7e37 17bd 0538 dabd cb3c 6ebc
00000020: 70ec 3ebd 6955 22bd d8ad 75bd 2119 14bc
00000030: f87f 3fbd 3bce c7bd e57d 9ebd 22db aabd
00000040: 1855 85bd 6c97 0bbc a121 d5bd 8560 97bd
00000050: e081 88bd 4610 9cbd b76a 88bc 17ac 49bd
00000060: a4db aebd 9229 00bd b437 113b 80a6 83bd
00000070: 6c12 fabc d6c0 19bd a146 3abd 268e 83bd
-0.051477596 -0.074134596 -0.08036246 -0.0909756 -0.046897005 -0.036918156 -0.10655216 -0.014540861
-0.046612203 -0.039632235 -0.059980243 -0.009039194 -0.0467529 -0.09756132 -0.07738856 -0.083425775
-0.06510371 -0.0085199885 -0.10406805 -0.073914565 -0.06665397 -0.076202914 -0.016652448 -0.049236383
-0.08537987 -0.031289645 0.0022158446 -0.06428242 -0.030526362 -0.03753742 -0.045477513 -0.06423597

fc1.weight f4 [50, 1568]
00000000: a351 33bc f565 8e3b be69 20bc 62ee 4f3d
00000010: 14c3 253b 52cd cbbc ae25 953c ddff 45bb
00000020: 9cb9 dd3b f1e9 05bd 2239 7b3b a5b0 12bd
00000030: 73b8 f23b 10f9 e3ba 04b6 18b9 e059 72ba
00000040: 3770 093c a57e 1d3b 0e8a b0bb 7901 15bc
00000050: 759b 5c3c 2815 223b a597 93bc 89a1 82bc
00000060: f498 1dbb bb97 2bbc 3c25 d2bc fc4c f8bc
00000070: 39cc db3a 3976 2a3c 586b ac3c 7cc3 5d3c
00000080: 0c36 343c e199 763c 5abc aebc 09ac 843c
00000090: d7fe 623c 92f2 eabb 0dff 0c3c ee27 e93c
000000a0: 5706 27bc fae8 1fbc 0eba beba 10ee a23c
000000b0: 52f3 ab3c b1e3 df3c 7ad5 9bbc ce56 9ebc
000000c0: 3d9a feb9 15d5 053d 70a1 b7bb 8882 e83c
000000d0: a62e 4fbd 272a 003d c856 6f3c 6494 10bc
000000e0: f7a8 a8bc 08cd 9f3c d886 28bb cd99 a1bc
000000f0: fab4 9bbc f0b6 baba a698 313c 97c2 b3bc
00000100: b269 75bc b766 bd3c da1a cebb 17ac 62bc
00000110: 86af 0f3a 104e 863c 5f12 e03a c787 4bbc
00000120: c547 c53c 88d8 7dbc 1576 89bc 0fd5 94bc
00000130: faf8 8f3b 6f8e ca3c 4124 eabb eb39 053c
00000140: f9d5 62bc 6f81 7bbc fb45 923c a1ff 9e3c
00000150: 80d9 423c c7b8 40bc 6e45 57bc 6f68 163b
00000160: a3b8 8bbc 28c0 f73b 1838 8cbb eec3 fa3b
00000170: c59c 67bc c9a7 05bc 9438 20bc 1bc2 df3a
00000180: ba3d e8bb 6b11 bc3c f71b 323b 8fc6 873c
00000190: 5db9 4b3c 4cac 893c 0fc1 c23b 22ae 8e3c
000001a0: 4673 11bc 0333 1f3c a2a3 053c a0c2 1fbd
000001b0: 4284 123d 36b0 87bc c320 063c ffb1 85bc
000001c0: 464e f8ba 7c35 bfbc 2da6 caba e7fb e2bc
000001d0: d1ea 49bc 7201 c3bc 2388 8c3c 5e2e 0e3c
000001e0: 393d 403a a10d e23c d73e 8f3a 7a67 92bb
000001f0: 085e 21bc 0dc1 2dbc 6ae0 113c 3ff0 64bb
00000200: 118b 07bc 1581 e23c 6194 93bc b22d 7fbc
00000210: 1b68 abbc 84c2 463c c8c8 b23c 5d52 f03b
00000220: ad96 c8bb c38d da3c e098 76ba 8540 c83c
00000230: f9ee b3bc b001 cd3c a550 3b3c b7c0 85bc
00000240: 34e6 783b 52af 46bc 9f8c 17bc 213b 3f3d
00000250: 14cb 3f3d 93bd e23c c2c0 e33a 5494 953d
00000260: 7e2a 7d3c 2ba6 583b 9530 c1bc d9c8 38bc
00000270: 0407 26bd 2313 0bbc b8bb c0bc c42c e9bc
00000280: 22c0 a7bc 4315 a1ba 2890 a93c 9f08 8bbb
00000290: 685d 9cbc 7183 4bbc a3c5 21bc fe90 f33c
000002a0: a83a 8d3b c37a 1abc b3b7 22bc 9070 713c
000002b0: b627 c0bb deaa 9b3c 245f e43c 26f3 34bc
000002c0: ccb0 583c 22c4 86bc 7896 9dbc ac93 da3b
000002d0: a26a 2a3c 9b33 eb3c 58c1 6c3b e8ae 2cbc
000002e0: 92d7 2c3c abcb 323c 28a6 4fbc fe45 9a3b
000002f0: d7ea 713c 4d23 90bb 906c bc3c 47d7 91bb
00000300: 869d 963a 0eb3 d2bb 788c 363c 77d9 a1bc
00000310: 86e7 b33b 879d 8ebc f1dc 783b 6e6f c8ba
00000320: a5f5 03bd e981 af3b 8add 953c dc55 31bc
00000330: d14e e3bc 0072 e9bc 789d 423c e278 00bd
00000340: 6c89 2cbc 51b5 2b3b 414c 29bc 8b6d 02bc
00000350: bcf0 19bc 1ffd cc3a 7dc3 efbc ed4d 7bbc
00000360: 9e0a 8a3b 2846 a1bb 77f0 9fbb cc3d 383c
00000370: 1c15 243b 135a e0bc 87d8 d7bb 3a44 49bc
00000380: 14bf ffbb b995 53bc 6d2d 24bb cd0c 44bb
00000390: 614b 9b3c bd34 d63c 0ebe 973c 1829 893c
000003a0: cde9 df3c 13c8 863b 92de c93b 02a5 873c
000003b0: 739d cc3c ed1a 1c3c 1df7 d33c e60c a5bb
000003c0: 067a ee3c 80c7 84bc 9cef d63c 39ff 8b3c
000003d0: 4d0a 65bc 27eb 90bc 4267 0dba abf3 9ebc
000003e0: c774 3a3d 7c98 223d 7a1e 4fbc bf07 bcbc
000003f0: b35c 59bd f4fe c9bc 60c8 05ba ae1c 2dbd
-0.010944757 0.0043456503 -0.009790836 0.05076445 0.0025293278 -0.024878178 0.018206444 -0.003021232
0.006766511 -0.032693807 0.0038333614 -0.035812993 0.007407242 -0.0017392952 -0.00014563656 -0.000924496
0.0083885705 0.0024031785 -0.005387551 -0.009094589 0.013464798 0.0024731848 -0.018016646 -0.015946167
-0.0024047466 -0.010473187 -0.02565252 -0.030310147 0.0016769237 0.010404163 0.02104728 0.013535377
0.010999214 0.015051336 -0.021330047 0.016195314 0.013854704 -0.00717003 0.008605731 0.028461423
-0.010194383 -0.009760136 -0.0014551298 0.019888908 0.020990048 0.027330251 -0.019022692 -0.019328501
-0.00048561572 0.032673914 -0.0056039616 0.028382555 -0.050581597 0.0312902 0.014608093 -0.008824442
-0.020588381 0.019506946 -0.0025715139 -0.019726658 -0.019007195 -0.0014245193 0.010839617 -0.021943374
-0.014978813 0.023120267 -0.006289822 -0.013834975 0.0005481172 0.016394645 0.0017095319 -0.012422509
0.024082074 -0.01549352 -0.016779939 -0.018168 0.004393694 0.02472612 -0.007145435 0.0081314845
-0.01384496 -0.015350684 0.017855635 0.019409003 0.011892676 -0.011762804 -0.013139112 0.002295043
-0.017055815 0.0075607486 -0.004279148 0.007652751 -0.014136498 -0.008157679 -0.009779114 0.0017071398
-0.0070874365 0.022957524 0.0027177313 0.016574172 0.012434331 0.01680579 0.0059434245 0.017417017
-0.008877581 0.009716752 0.008156689 -0.03900397 0.035770662 -0.016563516 0.008186522 -0.016320227
-0.0018944226 -0.023340933 -0.0015460901 -0.027708007 -0.012324051 -0.0238044 0.017154759 0.008678047
0.00073333416 0.02759439 0.0010928762 -0.004467902 -0.009849079 -0.010605109 0.008903602 -0.0034933237
-0.008272902 0.027649442 -0.018015089 -0.015574859 -0.020923665 0.012131337 0.021824256 0.007334037
-0.0061214776 0.026678925 -0.00094069354 0.024444828 -0.021964537 0.025025219 0.011432801 -0.016327245
0.0037979009 -0.012126761 -0.009249835 0.04668725 0.04682453 0.027678287 0.0017376172 0.07303682
0.015452025 0.0033058028 -0.023582736 -0.011278355 -0.040534034 -0.008488449 -0.023527011 -0.028463729
-0.020477358 -0.0012289662 0.020698622 -0.004242971 -0.019087508 -0.012421475 -0.00987378 0.029732224
0.004309971 -0.009428683 -0.009931493 0.01473631 -0.005864109 0.019002374 0.027877398 -0.011044299
0.013225745 -0.016450945 -0.019236788 0.006670436 0.0104014 0.02871113 0.0036125984 -0.010539748
0.010549443 0.010912816 -0.012673892 0.0047080508 0.014765463 -0.0043987394 0.023000985 -0.004450712
0.0011491037 -0.0064300364 0.011141889 -0.019757016 0.005490246 -0.0174091 0.0037973488 -0.0015291998
-0.032216687 0.0053560627 0.018294115 -0.010823693 -0.027747544 -0.028496742 0.011878364 -0.031365283
-0.010530811 0.0026200602 -0.010333122 -0.007960687 -0.009395774 0.0015639401 -0.02926802 -0.015338403
0.0042126914 -0.0049216934 -0.0048809606 0.011245202 0.0025036996 -0.0273867 -0.0065870914 -0.012284333
-0.0078047607 -0.012914115 -0.002505149 -0.0029914856 0.018956842 0.026148194 0.018523242 0.016743228
0.027333165 0.004113206 0.0061605657 0.016558174 0.024977421 0.009527904 0.025874669 -0.005036938
0.02911092 -0.01620841 0.026237302 0.017089473 -0.013979507 -0.017690254 -0.000539411 -0.0194033
0.045521524 0.0396962 -0.0126415435 -0.022952912 -0.05306692 -0.024657704 -0.00051034056 -0.04226368

fc1.bias f4 [50]
00000000: 556b a23c f53f 23bb 9cec 943b 3e6d 3b3d
00000010: 9093 493d 8568 6e3c 5ce9 493d 44f3 b43d
00000020: edc4 953c 95c8 433d d4c7 ef3d 459e e63c
00000030: aa3b 2b3d f82d 9c3c 24ff b63c a09e 113e
00000040: 4b07 543c 0f63 3f3e 4ade 243d b768 b33c
00000050: ff2e b43c da80 07bc 1386 593c a1e2 3a3d
00000060: 7630 243d d4ac 5f3e 33b2 ab3c 0660 863d
00000070: fc81 aa3c e107 293b 0517 9f3a 28a0 0b3d
00000080: d43d 453d 654c 1c3d 57b9 743d 31a2 543d
00000090: b8d8 9b3c bc48 533c 3ebf b93d bf38 2b3e
000000a0: e03b 493d 9548 083e b724 a3bc ae75 ee3c
000000b0: 78fe 4c3c 08f3 283d 2991 993c 2e88 153e
000000c0: e218 02bc 3f88 a43d
0.01982657 -0.0024909948 0.0045448076 0.04575848 0.049212992 0.014551287 0.049294814 0.08835462
0.018282378 0.04779871 0.11708036 0.02815164 0.041804947 0.019064888 0.022338457 0.14220667
0.012941192 0.18690132 0.040251054 0.021900518 0.021995066 -0.008270467 0.013276595 0.045626286
0.04008528 0.21843272 0.020958995 0.06561284 0.020813935 0.002579205 0.0012137598 0.034088284
0.048154667 0.038158793 0.059747066 0.05191249 0.019024238 0.012895759 0.0906968 0.16720866
0.049129367 0.13308938 -0.019914968 0.029108848 0.012511842 0.041247398 0.018745976 0.1460273
-0.007940503 0.080337994

fc2.weight f4 [2, 50]
00000000: 0739 b03e 1f1f 8abd 00ae 2b3e 3b4a 833e
00000010: ac40 713e fbe8 b33e 86f2 8c3e 6105 a4be
00000020: 89a0 d1be fe68 ad3e 783a e7be ad59 cb3e
00000030: c4fc 943e 9b43 b63e 4212 25be 91fd 52be
00000040: 80be 693e 07a1 a9be 8a81 c33e f473 a0bd
00000050: a2bf c23e 3db8 ca3c ddd5 613e dd1d e83e
00000060: 5269 cd3e 84f5 a4be 9b7b b93e 4290 c13e
00000070: 3d04 ed3e 2a78 c8bd e268 dabd 73fe b1bd
00000080: 0987 8a3e a43d aebe 376a b0be 4f5f 7e3e
00000090: 132c 03be 0747 68be 2ccf 1abe e5ec 7ebe
000000a0: 7e54 be3e 7e51 bdbe 2319 283e 8b3e f93e
000000b0: d057 2dbe 71f9 ac3e deab 62bc cc12 a8be
000000c0: db99 c13d 14e8 08bf 9cb7 67be 6e64 1cbe
000000d0: 8cde 54bd ed47 cfbe a669 d0be e556 d9be
000000e0: 7055 03bf 36bb 603e 034b 563e 84fb e8be
000000f0: 2b4c 683e 7576 ebbe 345f ebbe 9beb e0be
00000100: a266 a53e 7ee1 b23e a02d 40bd bf0b 9e3e
00000110: 8ad4 dfbe 9028 a13c 6608 b9be 6c46 9abd
00000120: 8f3b 2ebe ff2d 5abe f9bf b8be fc79 aa3e
00000130: 3a21 c3be 6c64 e2be 66b5 a1be e9f0 99bd
00000140: 0a3c e2bd ebe6 d93d b59d ecbe f3af 4c3e
00000150: dce5 d13e 8502 f8be 4f68 aeb9 3bb0 183e
00000160: 649d c13e a29c b43e c059 dabe c7e3 363e
00000170: 271d 793d 41d1 93be 96a4 bc3d 9a6f d6be
00000180: 32da 2abd e0a3 893e 7ea8 c43a 7ad3 a53e
0.34418508 -0.06744217 0.16765594 0.2564257 0.23559827 0.35138687 0.2752878 -0.32035354
-0.4094279 0.33869165 -0.45161796 0.39716855 0.29099095 0.35598454 -0.16120246 -0.2060454
0.22826576 -0.33130667 0.38184768 -0.07834616 0.3803683 0.024746055 0.22054239 0.45335284
0.40119416 -0.32218564 0.36227116 0.37805372 0.46292296 -0.097885445 -0.10664536 -0.086911105
0.2705615 -0.34031403 -0.34456035 0.24841045 -0.12809782 -0.22683345 -0.15118092 -0.24895056
0.37173837 -0.36976236 0.16415839 0.4868053 -0.16928029 0.3378406 -0.013834922 -0.3282684
0.09453174 -0.53479123 -0.22628635 -0.15272686 -0.05197005 -0.40484563 -0.40705603 -0.42449108
-0.5130224 0.21946415 0.20927052 -0.4550439 0.22685306 -0.45988813 -0.45971072 -0.43929753
0.32304865 0.34937662 -0.04691851 0.30868337 -0.43716842 0.019672662 -0.3613922 -0.07532963
-0.17014907 -0.21306609 -0.36083964 0.33296192 -0.38111287 -0.4421724 -0.3158371 -0.07516653
-0.11046608 0.10639747 -0.4621407 0.19988994 0.4099568 -0.48439422 -0.00033265582 0.14910977
0.37815392 0.3527575 -0.426466 0.17860328 0.060818817 -0.28870586 0.0921108 -0.4188202
-0.041711994 0.2688284 0.0015003828 0.32387906

fc2.bias f4 [2]
00000000: 7ea7 c6be 350c c93e
-0.3879966 0.39267126
